healthcare_chatbot_backend/data.pth (torch, 6826 bytes, 6 tensors)

l1.weight f4 [8, 88]
0	0x3e1f611d	0.1556439
1	0x3ee7c0e4	0.4526435
2	0x3e714fec	0.23565644
3	0x3eb17445	0.3465902
4	0x3e214adc	0.15751213
5	0x3e4e9894	0.20175391
6	0x3e09a2ec	0.13441056
7	0xbe132cc0	-0.1437254
8	0xbe32c8c3	-0.17459397
9	0xbe632cf2	-0.22185114
10	0x3e242b30	0.160321
11	0xbe9d0c1b	-0.30673298
12	0x3f132d17	0.57490677
13	0x3ebbf3a1	0.36709312
14	0x3e636de8	0.22209895
15	0x3e64544f	0.22297786
16	0x3e973783	0.2953454
17	0x3ded1a09	0.115772314
18	0xbe31f7bc	-0.1737966
19	0x3e842472	0.25809056
20	0x3ed3cf3a	0.4136904
21	0x3e795c6d	0.24351664
22	0x3da4c09f	0.08044552
23	0x3e90ad85	0.28257385
24	0x3d1063d0	0.03525144
25	0x3e921013	0.2852789
26	0xbc2d2927	-0.0105688935
27	0x3e3da4dc	0.1851992
28	0x3e53391e	0.20627257
29	0x3e322973	0.17398624
30	0x3d58b7b4	0.052909568
31	0x3e89161d	0.26774684
32	0x3d735904	0.059411064
33	0x3e2b16ce	0.16707918
34	0xbde8e395	-0.11371533
35	0x3f10677a	0.5640789
36	0xbf04c74f	-0.5186662
37	0x3e713148	0.23553956
38	0x3e54792e	0.20749351
39	0xbeb28ad3	-0.3487154
40	0x3ea37052	0.3192163
41	0xbea2f498	-0.31827235
42	0xbea509e4	-0.32234108
43	0xbdad1951	-0.08452094
44	0x3e36d646	0.17855176
45	0x3e312247	0.17298232
46	0x3e5b2c48	0.2140361
47	0x3e1c450c	0.15260714
48	0x3e297ec7	0.16552268
49	0x3e15d058	0.14630258
50	0x3d9813e2	0.07425667
51	0xbc3ed19c	-0.011646654
52	0xbccc19c6	-0.024914633
53	0x3cf2aacc	0.029622458
54	0x3e841de7	0.25804064
55	0x3d5ae5c8	0.053441793
56	0x3efb5c3a	0.490938
57	0xbd0a4620	-0.033758283
58	0x3dd39701	0.10331536
59	0x3e4ad5d8	0.19808137
60	0x3ebd6262	0.36989123
61	0x3ed4653d	0.4148349
62	0x3e89978c	0.26873434
63	0x3e935381	0.28774646
64	0x3e36e034	0.17858964
65	0x3e6a2528	0.22865736
66	0x3ef29e22	0.4738627
67	0x3e36d08f	0.17852996
68	0xbe35fcec	-0.17772263
69	0x3e32090f	0.17386268
70	0x3e267866	0.16256866
71	0x3e39ca0a	0.18143478
72	0x3e275ff9	0.16345204
73	0xbb763a6e	-0.0037571448
74	0x3ef61d48	0.48069215
75	0x3f0c7a7e	0.5487441
76	0x3edffd70	0.43748045
77	0x3e91732b	0.2840818
78	0xbd95c23f	-0.0731244
79	0x3ea350f8	0.31897712
80	0x3e7965c3	0.24355225
81	0x3e967ad2	0.2939058
82	0xbe7bb06f	-0.24579023
83	0x3da3855f	0.07984423
84	0x3f00c0d4	0.5029423
85	0x3eb8dae6	0.36104506
86	0xbe252d31	-0.1613052
87	0x3e6963af	0.22791933
88	0x3d845c20	0.06462884
89	0x3f3a32df	0.72733873
90	0xbcc290c4	-0.02375067
91	0x3ed6f8af	0.41986606
92	0x3e00ca20	0.12577105
93	0x3e681fa9	0.22668327
94	0x3e2567fa	0.16152945
95	0x3ed45bdf	0.41476342
96	0x3f06b02e	0.5261258
97	0xbd3b7d72	-0.04577393
98	0x3e26b8a0	0.16281366
99	0xbef1b0d6	-0.47205228
100	0xbf199f6c	-0.60008883
101	0x3e66e2e0	0.22547483
102	0x3e6e4785	0.2326947
103	0x3e43bfb4	0.19116098
104	0x3ea4afd6	0.32165402
105	0x3c274ee5	0.010211681
106	0x3f0acb15	0.5421613
107	0x3e18fa85	0.14939316
108	0x3ea645dc	0.32475173
109	0x3e940346	0.28908747
110	0x3e1b5248	0.15168107
111	0x3f0987e8	0.53723
112	0xbeb9c3fa	-0.3628233
113	0x3dc1e562	0.094675794
114	0x3db46599	0.08808441
115	0x3e94786d	0.28998128
116	0x3ea67db6	0.32517785
117	0x3e61eaa4	0.22062165
118	0x3e03a983	0.12857632
119	0x3e43d03c	0.19122404
120	0xbe38d951	-0.1805165
121	0x3d7cd822	0.061729558
122	0x3f096f06	0.53685033
123	0xbf1f40b3	-0.622081
124	0xbefabd6b	-0.4897264
125	0x3ded09ce	0.11574136
126	0x3e38b384	0.1803723
127	0x3f2f59e5	0.68496543
128	0x3eeb69bd	0.4597911
129	0x3f25ebdc	0.6481302
130	0x3f351f1c	0.70750594
131	0x396055ff	0.00021394341
132	0x3e200de1	0.15630294
133	0x3e6cf360	0.23139715
134	0x3e2a94d8	0.16658342
135	0x3e543280	0.20722389
136	0x3d9e1438	0.077187
137	0x3df62f53	0.12020745
138	0x3de570e1	0.112031706
139	0x3e959611	0.29216054
140	0xbef9fa4b	-0.4882377
141	0xbecf0b4d	-0.4043831
142	0xbef589d9	-0.47956732
143	0x3e0d1068	0.1377579
144	0x3ef0ac8e	0.4700665
145	0xbe9c07e3	-0.30474767
146	0x3e3cf328	0.18452132
147	0x3ddba375	0.10724536
148	0x3e360260	0.17774343
149	0x3e966ace	0.2937836
150	0x3e49f905	0.197239
151	0x3c6b3ae2	0.0143573005
152	0x3cfd97e3	0.030956214
153	0x3e060dd2	0.1309121
154	0x3eaff270	0.34364653
155	0x3e18ecd8	0.14934099
156	0xbe285412	-0.1643832
157	0x3da5dc79	0.080986924
158	0xbf019148	-0.50612307
159	0xbeae0ca7	-0.33994028
160	0x3e49263c	0.19643492
161	0xbc9f7cfe	-0.01946878
162	0x3cfb58a1	0.03068191
163	0x3f84364a	1.0329068
164	0x3ee1ab84	0.4407617
165	0x3eac6a9c	0.33675086
166	0x3ebac1b6	0.36475915
167	0x3e6a3da3	0.22875075
168	0x3c52cf7f	0.012866854
169	0x3e3ae253	0.18250398
170	0xbea514b3	-0.32242355
171	0x3dfb78cb	0.12278899
172	0x3e528800	0.20559692
173	0x3ec9302d	0.39294568
174	0xbea52c27	-0.32260248
175	0x3ef9ec40	0.48813057
176	0x3e4af7aa	0.19821039
177	0x3e97cfc7	0.2965071
178	0x3e80a3fb	0.25125107
179	0x3ec02127	0.37525293
180	0x3ddc166a	0.10746463
181	0x3e8d95df	0.27653405
182	0x3e94666c	0.28984392
183	0xbe262577	-0.16225229
184	0x3b7cc457	0.0038569176
185	0xbdc36bfa	-0.09542079
186	0x3e16c012	0.14721707
187	0xbea3271b	-0.31865773
188	0x3e8e89c1	0.27839473
189	0x3e70dffc	0.23522943
190	0x3ddf29e1	0.1089666
191	0x3ec60991	0.38679174
192	0x3e7904f7	0.243183
193	0x3e1ed08e	0.15509245
194	0xbe57e5ba	-0.21083727
195	0x3e7f60ac	0.24939221
196	0x3ee454b8	0.44595885
197	0x3e83fd2c	0.25779092
198	0x3e0ed4a8	0.1394831
199	0x3ec1a138	0.37818313
200	0x3e846044	0.25854695
201	0x3ebd84da	0.3701542
202	0x3e037151	0.12836196
203	0x3df69e12	0.12041868
204	0x3ec3d0b3	0.38245162
205	0x3e8b1fca	0.2717269
206	0x3e4c1132	0.19928434
207	0x3e9bbee2	0.3041907
208	0x3d886fd6	0.06661956
209	0x3e6aa213	0.22913389
210	0xbe73417d	-0.2375545
211	0x3ec61e5c	0.38695037
212	0xbf1ed071	-0.62036806
213	0x3e12c6a7	0.14333592
214	0x3e851422	0.25991923
215	0xbeb4324c	-0.35194623
216	0x3e49f5ba	0.19722643
217	0xbedc6b36	-0.43050545
218	0xbed5f641	-0.4178944
219	0xbe319e66	-0.1734558
220	0x3e80a6d4	0.2512728
221	0x3e4518f4	0.192478
222	0x3e387dd2	0.18016747
223	0x3dc5ee3b	0.096645795
224	0x3dcdfd62	0.100580946
225	0x3e31135a	0.17292538
226	0x3d57d2ba	0.0526912
227	0x3c99e04b	0.018783709
228	0x3e1ef95b	0.15524809
229	0x3ea93fbc	0.33056438
230	0x3ead5f82	0.3386193
231	0x3e62913c	0.22125715
232	0x3e92b876	0.28656358
233	0x3d9309ca	0.071796015
234	0x3e76cafc	0.2410087
235	0x3de2353f	0.11045312
236	0x3ecb1770	0.3966632
237	0x3eadb5ae	0.33927673
238	0x3e0cbfe7	0.1374508
239	0x3ec4c251	0.38429502
240	0x3e481023	0.19537406
241	0x3ddd6479	0.10810179
242	0x3f093f68	0.53612375
243	0x3e3ad3b9	0.18244828
244	0xbdb4b8d8	-0.08824319
245	0x3ca70f06	0.020392906
246	0x3ec6ddf1	0.38841203
247	0x3e3396a8	0.1753794
248	0x3ea2e947	0.318186
249	0x3e1d13ee	0.15339634
250	0x3f0ccd4b	0.5500075
251	0x3ea3ff6b	0.32030806
252	0x3e094687	0.1340581
253	0x3eda7aec	0.42671907
254	0xbdfd08a3	-0.12355163
255	0x3eef61ca	0.46754295

l1.bias f4 [8]
0	0x3f0d74bb	0.5525624
1	0x3f4b6183	0.79445666
2	0x3f0c714b	0.5486037
3	0x3f23d5c1	0.6399804
4	0x3f333927	0.7000908
5	0x3ebe075a	0.37114984
6	0x3ee7eee1	0.45299438
7	0x3f27392a	0.653216

l2.weight f4 [8, 8]
0	0x3fc61a79	1.5476829
1	0x3f593ca0	0.8485813
2	0x3fb2ff53	1.3984169
3	0xbecfd8e1	-0.40595153
4	0x3e733db4	0.23754007
5	0x3f92a899	1.1457702
6	0x3f980195	1.1875483
7	0xbed475f8	-0.41496253
8	0x3ef07f86	0.46972293
9	0xbe968dc8	-0.29405046
10	0x3f06b42b	0.52618665
11	0x3ecb355a	0.39689142
12	0xbf3cf8c9	-0.73817116
13	0x3f80f51f	1.0074805
14	0x3f9260ef	1.1435832
15	0xbe13419b	-0.14380495
16	0xbe450d20	-0.19243288
17	0x3fa080d4	1.2539315
18	0xbd89101a	-0.06692524
19	0x3f4883b4	0.78325963
20	0x3fa2dcd7	1.2723645
21	0xbf83b355	-1.0289103
22	0xbf46e369	-0.7769075
23	0x3f0818d8	0.5316291
24	0x3ed082d9	0.4072483
25	0x3ea8b313	0.32949123
26	0x3f094b3d	0.5363043
27	0x3ea2d189	0.31800488
28	0xbf9535cd	-1.1657044
29	0x3d1410fb	0.036149006
30	0x3f070f84	0.5275805
31	0x3e7879e9	0.24265255
32	0x3e80d7fd	0.25164786
33	0xbfce6238	-1.6123724
34	0x3f05b784	0.5223315
35	0x3f061089	0.5236898
36	0x3faeed0f	1.3666095
37	0x3f849012	1.0356467
38	0x3ef70ba6	0.48251075
39	0x3f2030ac	0.6257427
40	0xbd7eaa89	-0.062174354
41	0x3f1b2f66	0.606192
42	0x3ee14819	0.4400032
43	0x3f8c3b8f	1.0955676
44	0xbf8b074a	-1.08616
45	0x3e5f6006	0.21813974
46	0x3e5f3bca	0.21800151
47	0x3f6e4959	0.9308067
48	0xbec9e201	-0.3943024
49	0x3e39ef95	0.181578
50	0xbedd618f	-0.43238494
51	0x3fc1ecf0	1.5150433
52	0xbd0f5708	-0.03499511
53	0xbe86ae4b	-0.2630485
54	0xbf1f77fd	-0.6229246
55	0x3fa6e059	1.3037215
56	0x3f35e4fe	0.7105254
57	0x3fccf9c2	1.601372
58	0x3ebdd575	0.37076917
59	0x3f20d265	0.62821037
60	0xbf4549ca	-0.7706572
61	0x3f2095b7	0.62728447
62	0x3d850b1f	0.06496262
63	0x3f6fd6b4	0.93686986

l2.bias f4 [8]
0	0x3f0f92fe	0.5608367
1	0x3e612ae4	0.21989018
2	0x3f074162	0.5283414
3	0xbf0986ae	-0.5372113
4	0x3ead5169	0.33851174
5	0xbe7bfc31	-0.24607922
6	0x3ef68676	0.4814946
7	0x3e3edbcd	0.18638535

l3.weight f4 [6, 8]
0	0x3d1504fc	0.036381707
1	0x3ed7588f	0.42059752
2	0xbf9e9698	-1.2389708
3	0x3ff31231	1.8989927
4	0xbfa013c0	-1.2506027
5	0x3f08e699	0.53476864
6	0x3de0443f	0.10950517
7	0x3f058d28	0.5216851
8	0x3e072f12	0.1320155
9	0xbf93af04	-1.1537786
10	0x3e8814bc	0.2657832
11	0xbf9351b8	-1.1509314
12	0x3f232d93	0.63741416
13	0xbeba3540	-0.36368752
14	0xbf94334b	-1.1578153
15	0xbfbabfd4	-1.4589791
16	0x3f1de8e8	0.6168351
17	0x3f3458f1	0.70448214
18	0xbfe3f364	-1.7808652
19	0xc013268d	-2.299228
20	0x3e4fbe61	0.20287468
21	0xbf900ed3	-1.1254524
22	0xbea73311	-0.32656148
23	0xbe2707f3	-0.16311626
24	0xbf80a119	-1.0049163
25	0xbf23fac1	-0.64054495
26	0x3ecaeaa4	0.39632142
27	0xbfcaf975	-1.5857378
28	0xbf987fd4	-1.191401
29	0x3f26af79	0.651115
30	0x3f44ba49	0.7684675
31	0x3f1a8c61	0.6037045
32	0x3f04bf62	0.51854527
33	0xbf71b944	-0.9442332
34	0x3f00c99e	0.50307643
35	0xc0020fd6	-2.0322165
36	0xbf8680e2	-1.0508082
37	0xbf8a44d3	-1.0802253
38	0xbf9eec15	-1.2415797
39	0x3ed67300	0.41884613
40	0xbfb0b650	-1.3805637
41	0xbf0785d7	-0.529386
42	0x3ef0d4e6	0.4703743
43	0xbfa42b84	-1.282578
44	0x3f08a62c	0.5337856
45	0xbf9ab801	-1.2087404
46	0x3f5c4abd	0.8605154
47	0xbf74934a	-0.95537245

l3.bias f4 [6]
0	0x3d2ebf6d	0.042663027
1	0x3e624c22	0.22099355
2	0xbe43e7d5	-0.19131406
3	0xbed50ae7	-0.4160988
4	0xbe83eb25	-0.2576534
5	0x3d11438e	0.035464816
